data.pth (torch, 6890 bytes, 6 tensors)

fc1.weight f4 [8, 83]
0	0x3eb11719	0.34587935
1	0xbdb205f6	-0.08692543
2	0x3e37e804	0.179596
3	0xbe670fb9	-0.22564591
4	0xbec276bb	-0.3798121
5	0x3e398dd1	0.18120505
6	0xbdcf7ede	-0.1013162
7	0x3eef6b55	0.46761575
8	0x3f14ab71	0.580741
9	0x3e299187	0.1655942
10	0x3f5bb46a	0.85822165
11	0xbee19baa	-0.44064075
12	0x3dde4d8f	0.10854637
13	0x3e06d123	0.13165717
14	0x3ef77bcd	0.4833664
15	0x3e399e21	0.18126728
16	0xbe316562	-0.1732383
17	0x3cd86a69	0.026417928
18	0xbe86b945	-0.26313224
19	0x3eecbac5	0.46236244
20	0x3e55c390	0.20875382
21	0x3ed16bec	0.4090265
22	0x3e91aaab	0.28450522
23	0x3f0e6feb	0.55639523
24	0xbbc25bdd	-0.005931361
25	0xbf73e020	-0.9526386
26	0xbeaa920c	-0.3331455
27	0x3dec3346	0.11533217
28	0x3d00a3d7	0.03140625
29	0xbdaf87d2	-0.085708275
30	0x3f274ba5	0.653498
31	0xbeeb6cd7	-0.45981476
32	0x3e191425	0.14949091
33	0x3eb7f4b9	0.35928896
34	0xbe256e4e	-0.16155359
35	0x3e64f8cf	0.22360538
36	0xbecbb05c	-0.3978299
37	0x3ee4a957	0.44660446
38	0xbd721dd5	-0.05911048
39	0xbe27da2a	-0.16391817
40	0xbc017663	-0.007901761
41	0x3c243795	0.010023017
42	0xbdb8f245	-0.09030584
43	0xbe905b9a	-0.28194886
44	0xbec23602	-0.3793183
45	0x3e5f3320	0.21796846
46	0x3d86ecbf	0.065881245
47	0xbdb30c25	-0.08742551
48	0x3f3bdbaa	0.73382056
49	0x3d8f33d2	0.06992306
50	0xbde7993d	-0.11308525
51	0x3e7146b9	0.23562135
52	0x3ef58555	0.47953287
53	0x3d7a3527	0.061085846
54	0x3f6e0c0e	0.92987144
55	0xbe886e8d	-0.26646844
56	0x3de77c77	0.11303037
57	0xbeb4dd61	-0.3532515
58	0x3ee99596	0.45621938
59	0xbe019408	-0.12654126
60	0xbe6fc23e	-0.23413941
61	0xbe627d9d	-0.2211823
62	0x3ecd98ec	0.40155733
63	0x3d8dac3e	0.06917618
64	0x3d8a343b	0.067482434
65	0xbd3d7a24	-0.04625906
66	0xbe8864de	-0.26639456
67	0x3e99fe50	0.30076838
68	0x3eeecba3	0.46639737
69	0x3f29b5d1	0.66293055
70	0x3f213aa9	0.62980133
71	0xbe89d318	-0.26918864
72	0x3ed9afce	0.4251694
73	0xbed8e801	-0.42364505
74	0x3e76ce8b	0.24102227
75	0x3dbc6fc6	0.092010066
76	0xbdcdf43e	-0.10056351
77	0xbdeb974f	-0.11503469
78	0xbda47f67	-0.080321126
79	0x3e2e54b9	0.17024507
80	0x3f22d33f	0.63603586
81	0x3ee09769	0.43865517
82	0x3e78c3ad	0.24293394
83	0xbdee25de	-0.11628316
84	0x3f285c30	0.65765667
85	0x3d0eee27	0.03489509
86	0xbd7acbe1	-0.06122959
87	0x3f73f445	0.952946
88	0xbe22ba2e	-0.15891334
89	0xbd103f4d	-0.03521662
90	0xbd063239	-0.03276274
91	0x3c21cd20	0.009875566
92	0xbe301ab7	-0.17197691
93	0x3ea69b5b	0.32540402
94	0xbd940003	-0.07226565
95	0xbf468aa5	-0.77555305
96	0xbe8edaa6	-0.2790119
97	0x3ea7288f	0.3264813
98	0xbed9d5f8	-0.42546058
99	0xbdbd462d	-0.092419006
100	0x3d0e80d3	0.034790825
101	0xbe09fb61	-0.134748
102	0xbe276e60	-0.16350698
103	0x3dd069bd	0.10176418
104	0x3d1d1663	0.038351428
105	0xbd93982e	-0.0720676
106	0x3de812e7	0.1133173
107	0x3f2a59d2	0.66543305
108	0x3e43079f	0.19045876
109	0xbed2ca18	-0.4116981
110	0x3f05ea7f	0.5231094
111	0x3e863963	0.26215658
112	0x3e57b563	0.21065287
113	0x3e80a2d9	0.25124243
114	0xbde5fbec	-0.11229691
115	0xbe1d4f41	-0.15362264
116	0xbc77dd85	-0.015128498
117	0xbd489b14	-0.04897602
118	0x3e2915fa	0.1651229
119	0xbe0c712f	-0.13715051
120	0xbdcf0db6	-0.10110037
121	0x3e50418b	0.20337503
122	0x3a4b3056	0.0007751038
123	0x3f245d52	0.64204895
124	0x3e2bab3f	0.16764544
125	0x3c89caf2	0.016820405
126	0xbef9aeb7	-0.4876611
127	0xbf02a445	-0.51031905
128	0x3dbbf1ef	0.091770045
129	0xbc3b1663	-0.011418912
130	0x3ec38d63	0.38193807
131	0x3e95a7d9	0.2922962
132	0xbdd08ec9	-0.10183484
133	0x3ece56ee	0.40300697
134	0xbd3cd767	-0.04610386
135	0xbd489a20	-0.04897511
136	0x3e2b404d	0.16723748
137	0x3ed6e6da	0.41973
138	0x3dd0b431	0.10190619
139	0xbd0a8b22	-0.033824094
140	0xbf19bf09	-0.6005712
141	0xbe90b441	-0.28262523
142	0x3db451fc	0.088047
143	0xbe47d227	-0.1951376
144	0x3ec14b09	0.3775256
145	0xbd8df099	-0.06930656
146	0x3e2f9faf	0.17150758
147	0x3e80599c	0.25068367
148	0x3f3d6487	0.7398152
149	0x3c19e23e	0.009392319
150	0xbe46765c	-0.19381088
151	0xbe6cd947	-0.2312976
152	0x3ec9aae8	0.39388204
153	0xbe562785	-0.20913513
154	0x3f25a371	0.64702517
155	0x3df60ffd	0.12014768
156	0x3f0669a1	0.52504927
157	0xbe69f7e7	-0.22848473
158	0xbee6fb2d	-0.45113507
159	0x3eb16fa3	0.34655485
160	0x3eb4abec	0.35287416
161	0x3de9f22c	0.11423144
162	0xbe93d6cc	-0.28874815
163	0x3ece7816	0.40325993
164	0xbe406110	-0.18787026
165	0x3d573e67	0.052549746
166	0x3eef081b	0.4668587
167	0x3e055d19	0.13023795
168	0xbe90ffd4	-0.2832018
169	0x3e0ee870	0.13955855
170	0x3e7e9645	0.24862011
171	0x3ef166fb	0.4714888
172	0x3e854114	0.26026213
173	0x3aa36b10	0.001246782
174	0x3e3fae0c	0.18718737
175	0xbd0d61da	-0.034517147
176	0xbed369bd	-0.4129161
177	0x3dfe9913	0.1243154
178	0x3f781dfe	0.96920764
179	0x3ec5638d	0.38552514
180	0xbea16c42	-0.31527907
181	0x3f234997	0.63784164
182	0x3d0e79de	0.03478419
183	0xbe982177	-0.29713032
184	0x3e6c50d5	0.2307771
185	0xbd7a5826	-0.06111922
186	0xbe882ba6	-0.265958
187	0xbdc283ce	-0.09497796
188	0xbc4c1dd0	-0.01245828
189	0x3e4fedb9	0.20305528
190	0x3d790eea	0.06080524
191	0xbd782583	-0.06058265
192	0x3ef9a4f0	0.4875865
193	0x3e44e4e4	0.1922794
194	0x3d296e3e	0.0413649
195	0x3e3b78ba	0.18307772
196	0x3cb60b96	0.022222321
197	0x3e02eacc	0.1278488
198	0xbd9e3f4b	-0.07726916
199	0xbe1153e6	-0.14192161
200	0x3e86f6e0	0.26360226
201	0x3eb4df99	0.3532684
202	0x3e8a9fdd	0.2707509
203	0x3da1e48e	0.079049215
204	0xbbd16fc3	-0.006391497
205	0x3db4d397	0.0882942
206	0x3e13237b	0.14369003
207	0x3dcb1883	0.099167846
208	0xbe99d942	-0.30048567
209	0x3e58bfd7	0.21166931
210	0x3ea8ad68	0.32944798
211	0xbe3d8514	-0.18507797
212	0xbebecf45	-0.3726751
213	0x3d9de978	0.07710546
214	0xbf031333	-0.5120117
215	0x3e2b4f71	0.16729523
216	0xbce0706a	-0.027397353
217	0xbdaf706c	-0.08566365
218	0xbe00a7b2	-0.1256397
219	0xbeba0682	-0.3633309
220	0xbefce7b8	-0.49395537
221	0x3e2e2f51	0.17010237
222	0x3eae9fe7	0.3410637
223	0x3e7d8934	0.2475937
224	0xbdc696cb	-0.0969673
225	0x3eb673d1	0.35635236
226	0x3ecd40e9	0.40088585
227	0xbc68799b	-0.014189149
228	0xbc995fb8	-0.0187224
229	0xbe9a005e	-0.30078405
230	0x3e4a6be8	0.19767725
231	0x3e7d641e	0.24745223
232	0x3e92f9d2	0.28706223
233	0x3ee4a963	0.44660482
234	0xbdc9d019	-0.098541446
235	0xbe193499	-0.1496147
236	0xbf04ebea	-0.51922476
237	0x3e8aa608	0.27079797
238	0xbcb0adcb	-0.021567246
239	0x3ec079e0	0.37592983
240	0x3eb8530d	0.36000863
241	0xbed36d82	-0.41294485
242	0x3d3cdc7e	0.046108715
243	0xbd774dbf	-0.06037688
244	0xbe897107	-0.26844046
245	0x3f06b64c	0.5262191
246	0xbee8503d	-0.45373717
247	0x3ed6994e	0.41913837
248	0xbe779b04	-0.24180228
249	0x3d45bb3f	0.048274275
250	0xbe23e7ed	-0.16006441
251	0x3f21386f	0.62976736
252	0x3ee06bf4	0.43832362
253	0xbf003015	-0.5007337
254	0x3e92c62e	0.28666824
255	0xbba7f838	-0.0051260255

fc1.bias f4 [8]
0	0x3f5cebdf	0.8629741
1	0x3f6c81ba	0.9238545
2	0x3f44de1b	0.76901406
3	0x3f004101	0.5009919
4	0x3eb9fdff	0.36326596
5	0x3f4c743c	0.7986486
6	0x3f41a161	0.7563687
7	0x3f39321b	0.7234208

fc2.weight f4 [8, 8]
0	0x3cb79207	0.022408498
1	0x3c820a96	0.015874188
2	0xbe91c588	-0.28471017
3	0x3cadc5c6	0.02121247
4	0xbd7dcee4	-0.061964884
5	0xbc956293	-0.01823548
6	0xbdfd1498	-0.123574436
7	0x3d5ccd75	0.053906877
8	0x3f82f6e5	1.0231596
9	0xbfa36d1b	-1.2767671
10	0x3f0d35d1	0.5516024
11	0xbf5c13ba	-0.859676
12	0x3e014a5a	0.12626019
13	0x3ed115e4	0.40837014
14	0x3ec6c297	0.38820335
15	0x3f786bc0	0.97039413
16	0x3e9fb4fe	0.31192774
17	0xbf24a902	-0.64320385
18	0xbf6a6e2d	-0.91574365
19	0x3d892175	0.066958345
20	0x3f69ec01	0.9137574
21	0x3f3f06cc	0.74619746
22	0x3ede5cde	0.43430227
23	0x3e2c7c7c	0.16844362
24	0x3f8dc6f2	1.1076338
25	0xbf34ae76	-0.70578706
26	0xbe269d2f	-0.16270898
27	0x3f686a6c	0.90787387
28	0xbea0ab15	-0.31380525
29	0x3f87269e	1.055866
30	0x3f9bb64d	1.2165009
31	0xbf3b41ad	-0.7314709
32	0xbf20fb63	-0.62883586
33	0xbf7a6ec1	-0.9782525
34	0x3fb6f975	1.4294878
35	0x3f09f3f0	0.53887844
36	0x3fcca448	1.5987635
37	0x3ee7e886	0.4529459
38	0x3e8b44a7	0.27200815
39	0x3fae4ec0	1.3617783
40	0x3f9cc0e9	1.2246372
41	0x3f9b046b	1.2110723
42	0x3f0ea7ac	0.55724597
43	0xbf880de1	-1.0629236
44	0xbeef52e0	-0.46742916
45	0x3f346171	0.70461184
46	0x3f826d35	1.0189577
47	0x3f4e6ec8	0.8063779
48	0x3e5f0528	0.2177931
49	0xbe893a04	-0.26802075
50	0xbe176f52	-0.14788559
51	0x3cf7dbb3	0.030256128
52	0x3ddda68e	0.108227834
53	0xbea309ba	-0.31843358
54	0xbe99c9ff	-0.30036923
55	0xbd8e862e	-0.069591865
56	0x3f078a96	0.5294584
57	0x3d6bee5d	0.057600368
58	0xbf8a5457	-1.0806988
59	0x3fd5631d	1.6670872
60	0xbf39357b	-0.7234723
61	0x3f3c7439	0.7361484
62	0xbfae3dfc	-1.3612666
63	0x3f9219ed	1.1414162

fc2.bias f4 [8]
0	0xbe3016e0	-0.17196226
1	0x3e63d9ef	0.22251104
2	0xbe97602f	-0.2956557
3	0x3dfb75e8	0.12278348
4	0x3cd5d9e3	0.026104873
5	0x3f018383	0.50591296
6	0xbe23e59c	-0.16005558
7	0x3f459f28	0.7719598

fc3.weight f4 [9, 8]
0	0xbe008fbb	-0.12554829
1	0xbf58fc53	-0.84760016
2	0xbfc061b6	-1.5029819
3	0xbf60953f	-0.8772773
4	0xbf2d4ca8	-0.67695093
5	0x3f6aa395	0.91655856
6	0xbe7ad628	-0.24495757
7	0xbfc14f8f	-1.5102404
8	0x3de488c6	0.111589
9	0x3efd4f19	0.4947441
10	0xbf81a381	-1.0128022
11	0x3ec9611c	0.393319
12	0x3e060a52	0.13089874
13	0xbea27cd2	-0.31735855
14	0xbe3ce11e	-0.1844525
15	0xbfaa523e	-1.3306348
16	0xbe337cbe	-0.17528054
17	0x3f206bb9	0.6266437
18	0x3d934f98	0.07192916
19	0xbfa83ed6	-1.3144176
20	0x3f18e911	0.5973063
21	0xbfcff7aa	-1.6247456
22	0x3e935577	0.28776142
23	0xbf2a1b04	-0.6644747
24	0x3d9a3b74	0.07530871
25	0x3e4e8645	0.20168407
26	0xbea9a8eb	-0.33136687
27	0x3e489ea6	0.1959177
28	0xbfe9e55a	-1.8273118
29	0x3dad23e3	0.084541105
30	0xbe8c3124	-0.2738124
31	0x3eddb0eb	0.4329904
32	0x3e2f80b8	0.17138946
33	0xbf914231	-1.1348325
34	0xbfda2015	-1.7041041
35	0xbf826de1	-1.0189782
36	0x3e5f643b	0.21815579
37	0xbeb2984b	-0.34881815
38	0x3e9d1ede	0.30687612
39	0x3f0c4163	0.5478727
40	0xbe204bee	-0.15653965
41	0xbf57079d	-0.8399599
42	0xbfa35059	-1.2758895
43	0x3f481ae1	0.78166014
44	0xbf9f36f4	-1.2438645
45	0xbfe3c5c9	-1.7794734
46	0xbe9efe2e	-0.310533
47	0x3f750735	0.9571412
48	0xbe82527a	-0.2545355
49	0x3dddbedb	0.108274184
50	0x3ebb3335	0.36562505
51	0x3f3678d3	0.71278113
52	0xbfb355d4	-1.4010568
53	0xbd0f57f7	-0.034996
54	0x3dd0c425	0.101936616
55	0xbf883bb5	-1.0643221
56	0xbbd7ff82	-0.006591738
57	0xbfaaaf02	-1.3334658
58	0x3e15e00d	0.1463625
59	0x3e3bb40c	0.18330401
60	0x3dc74a7c	0.09731004
61	0xc00f9323	-2.2433555
62	0x3e9ce115	0.30640474
63	0x3e91b02c	0.2845472
64	0xbdb68b9d	-0.08913348
65	0x3dfdc10d	0.12390337
66	0x3edfc7cd	0.43707123
67	0x3e9b6b0a	0.30355102
68	0xbf212ddc	-0.629606
69	0xbf49e6c3	-0.7886774
70	0xbea7baea	-0.32759792
71	0x3e0525ac	0.13002652

fc3.bias f4 [9]
0	0x3f838b00	1.0276794
1	0xbee4fde1	-0.44724944
2	0xbd7c9d41	-0.061673407
3	0xbea5e873	-0.32403907
4	0xbd84041a	-0.06446095
5	0x3ee7901d	0.45227137
6	0xbec7b6a8	-0.39006543
7	0x3da65ae2	0.08122803
8	0xbf06c4fb	-0.5264432
